improved_Rc_v1/mlp_model.pth (torch, 5720 bytes, 7 tensors)

net.0.weight f4 [24, 12]
0	0xbe74daa0	-0.23911524
1	0xbca9c105	-0.020721922
2	0x3d90cf27	0.07070761
3	0x3e01f1e2	0.12689927
4	0xbe2aeeb3	-0.16692619
5	0xbdd99dc0	-0.106257915
6	0xbb601f17	-0.0034198218
7	0xbe37a487	-0.17933856
8	0xbe25f9ed	-0.1620862
9	0xbe5a7a21	-0.21335651
10	0xbd16fbb2	-0.03686113
11	0xbe52c351	-0.2058232
12	0x3e6e6b97	0.2328323
13	0xbe37e6b4	-0.179591
14	0xbc47fa59	-0.012205684
15	0x3dcf7407	0.10129552
16	0x3db957a9	0.09049923
17	0x3d434890	0.047676623
18	0xbe5f2214	-0.21790344
19	0xbe7ee5ae	-0.24892303
20	0x3e4312ec	0.19050187
21	0x3e22bc29	0.1589209
22	0x3da4f546	0.08054595
23	0x3d9e5e62	0.07732846
24	0x3e171b8e	0.14756605
25	0x3e19243b	0.14955227
26	0xbe985e73	-0.2975956
27	0x3d61f4c3	0.055165064
28	0xbd1062a2	-0.035250314
29	0x3e06477b	0.13113205
30	0xbddee9d0	-0.1088444
31	0x3e059430	0.1304481
32	0xbdb2c0ee	-0.08728205
33	0xbd8cbc46	-0.06871848
34	0x3e25b188	0.16181004
35	0xbdf939a4	-0.12169197
36	0xbe347b44	-0.17625147
37	0xbe18a841	-0.14907934
38	0x3d28effb	0.04124449
39	0xbd357c85	-0.044308204
40	0xbb556776	-0.0032562888
41	0xbe9a6eef	-0.3016276
42	0xbd0c618f	-0.034272727
43	0x3ba78661	0.0051124548
44	0xbe71797a	-0.23581496
45	0x3e369db8	0.17833602
46	0xbe5ff5b4	-0.21871072
47	0xbdb37579	-0.087626405
48	0xbe1334fe	-0.14375684
49	0x3d99907c	0.07498261
50	0xbe39a578	-0.18129528
51	0x3da704db	0.08155223
52	0x3b72289c	0.0036950475
53	0xbe847d0d	-0.25876656
54	0xbe56b63f	-0.20967959
55	0x3d941e24	0.07232311
56	0x3e404974	0.1877802
57	0xbd50dc8c	-0.05099158
58	0xbdd5f8a6	-0.104478166
59	0x3e17e180	0.14832115
60	0x3cd9549c	0.026529603
61	0xbe14aa58	-0.14518106
62	0x3e8344a1	0.25638297
63	0x3d958a09	0.07301719
64	0xbe1900aa	-0.1494166
65	0xbe7d2d37	-0.2472428
66	0x3c888853	0.016666567
67	0xbe0ee105	-0.13953026
68	0xbd5f4e8d	-0.05451827
69	0x3d1681c9	0.036744867
70	0xbe1a5a80	-0.15073586
71	0x3bfeac0d	0.007771975
72	0xbe060cfe	-0.13090894
73	0x3d1dfade	0.038569324
74	0x3ea6fc37	0.326143
75	0xbe70383a	-0.23458949
76	0xbe147de8	-0.14501154
77	0xbe00d37f	-0.1258068
78	0xbe7a426d	-0.24439402
79	0xbd647d49	-0.055783544
80	0xbe7a940f	-0.24470542
81	0x3e35ac98	0.1774162
82	0xbcb5bc3f	-0.02218449
83	0xbe95e00a	-0.2927249
84	0x3df84961	0.12123371
85	0xbe133829	-0.14376892
86	0xbe1e042b	-0.15431277
87	0xbe267f4b	-0.16259496
88	0x3defa8c6	0.11702113
89	0xbd8e3c5d	-0.06945107
90	0x3e5ef4d9	0.2177309
91	0xbd3cf2ec	-0.046130106
92	0x3e0cd7c1	0.13754179
93	0xbe2b0335	-0.16700442
94	0xbe832182	-0.25611502
95	0x3db73e2a	0.08947404
96	0x3d415454	0.047199562
97	0x3d4f5623	0.050619256
98	0x3e4626ff	0.19350813
99	0xbd9d005b	-0.076660834
100	0x3d8ed04f	0.069733255
101	0x3e52a7a3	0.20571761
102	0x3d302589	0.043004546
103	0xbe17d38e	-0.14826795
104	0x3d3da83f	0.04630303
105	0xbe0ef784	-0.13961607
106	0xbe7440aa	-0.23852792
107	0x3e2e486c	0.17019814
108	0xbe83b64a	-0.25725013
109	0xbcfcf644	-0.030879147
110	0x3cea32ac	0.028588615
111	0x3e660b42	0.22465232
112	0xbe09e7bc	-0.13467306
113	0x3e63d1fe	0.22248074
114	0xbe6c585f	-0.23080586
115	0xbe21e18f	-0.158087
116	0xbd2b5ec0	-0.041838408
117	0x3dd22946	0.102617785
118	0xbb1e5599	-0.0024159907
119	0x3d45e580	0.04831457
120	0x3e319ae0	0.17344236
121	0x3e2456b7	0.16048704
122	0x3d9dd44b	0.07706507
123	0xbe0a9ebb	-0.13537113
124	0xbdd0fc2a	-0.102043465
125	0x3e3e60da	0.18591633
126	0x3d679bc0	0.05654502
127	0xbe50d50d	-0.20393772
128	0x3e55c143	0.20874505
129	0x3e0b44d4	0.13600475
130	0x3ea44e42	0.32090956
131	0x3dc7721f	0.09738564
132	0x3cbf2b73	0.023336148
133	0xbd726ae8	-0.059183985
134	0xbd86a807	-0.065750174
135	0x3d010248	0.031496316
136	0xbe6a47b4	-0.22878915
137	0xbcbceb0d	-0.0230613
138	0xbda4d73a	-0.08048864
139	0x3e3f175a	0.18661252
140	0x3c58bc69	0.013228514
141	0xbe56932e	-0.20954582
142	0xbe302b36	-0.17203984
143	0xbe0598e4	-0.13046604
144	0x3e81bbbf	0.2533855
145	0x3de64817	0.11244219
146	0x38e0e1f4	0.000107232394
147	0x3e5a989d	0.2134728
148	0xbdfdffa6	-0.12402277
149	0xbe4364b0	-0.19081378
150	0x3e940bf2	0.28915364
151	0xbe4a17b3	-0.19735603
152	0xbd74bdd7	-0.059751358
153	0xbc525bfc	-0.012839314
154	0xbd8431cc	-0.064548105
155	0x3da6baff	0.081411354
156	0xbe83169c	-0.25603187
157	0xbdfd8e58	-0.123806655
158	0x3d98cdf3	0.07461157
159	0xbe6a4d67	-0.22881089
160	0x3e42dec7	0.19030295
161	0xbe6b7699	-0.2299446
162	0xbeaae129	-0.3337491
163	0x3e8e385c	0.27777374
164	0xbd2a42b4	-0.04156752
165	0x3c7e91b4	0.015537668
166	0xbe973ea2	-0.29539973
167	0xbc4eeb06	-0.012629276
168	0x3d559fe0	0.05215442
169	0x3d227c8b	0.039669555
170	0xbba4caf3	-0.0050290762
171	0xbcff6dd1	-0.031180294
172	0xbdf9aba5	-0.12190942
173	0xbcbff622	-0.023432795
174	0xbe2f53a2	-0.17121747
175	0xbe992406	-0.29910296
176	0xbd160775	-0.036628205
177	0x3dd1f433	0.102516554
178	0x3e00b884	0.12570387
179	0x3e8e3704	0.2777635
180	0xbe0f38a8	-0.13986456
181	0x3e37f68b	0.17965142
182	0x3e11f025	0.14251764
183	0x3da9ca8a	0.082905844
184	0xbd8c372e	-0.06846462
185	0x3e6d5be6	0.23179588
186	0xbeb2ca78	-0.34920096
187	0xbd7ceaa2	-0.0617472
188	0xbe881f55	-0.26586404
189	0x3e1576b7	0.14596067
190	0x3df2c256	0.11853473
191	0xbe42ffe8	-0.19042933
192	0xbdea2d8f	-0.11434471
193	0x3e263a62	0.16233209
194	0xbe1f7e26	-0.15575466
195	0xbd157498	-0.036488146
196	0xbd2fac9b	-0.04288922
197	0xbd3451e8	-0.044023424
198	0xbdcba213	-0.099430226
199	0x3e19299a	0.14957276
200	0x3de201c8	0.11035496
201	0x3dff9564	0.12479666
202	0xbce9db64	-0.028546996
203	0x3e3c4720	0.18386507
204	0x3e8105ff	0.25199887
205	0x3df0a69f	0.117505305
206	0x3a4fa45e	0.0007920916
207	0x3e0b76d9	0.13619556
208	0x3d91f1dc	0.07126209
209	0xbe1063f0	-0.14100623
210	0xbd3505f3	-0.044195127
211	0xbd720928	-0.059090763
212	0xbda56406	-0.080757186
213	0xbc64b152	-0.013958292
214	0x3db7510b	0.089510046
215	0xbe5d9903	-0.216404
216	0xbe8f3206	-0.27967852
217	0xbe76220e	-0.24036428
218	0x3e501773	0.20321445
219	0xbe78288a	-0.24234214
220	0xbd51bd2f	-0.05120581
221	0xbe2843c6	-0.16432104
222	0xbe12b33a	-0.14326182
223	0x3d42a4e5	0.047520537
224	0x3e0ab3ff	0.13545226
225	0x3e8434df	0.25821587
226	0xbdf7491f	-0.120744936
227	0x3e27afbf	0.16375636
228	0x3ce229e9	0.027607875
229	0x3e5ba51b	0.21449701
230	0x3cae70b0	0.021293968
231	0xbe3a8096	-0.18213114
232	0x3cbdfb38	0.02319108
233	0xbe199df3	-0.15001659
234	0x3daab53d	0.0833535
235	0xbebe976b	-0.37224898
236	0x3e8f19a7	0.2794926
237	0xbd1f39f1	-0.038873617
238	0x3e742517	0.23842274
239	0x3dc0227a	0.09381576
240	0x3e604cdd	0.21904321
241	0xbd2b1bee	-0.041774683
242	0x3e953165	0.29139248
243	0x3e0b9dc7	0.13634406
244	0xbdd5ecb1	-0.10445536
245	0x3eabb358	0.33535266
246	0x3eab6ebf	0.3348293
247	0xbeace1da	-0.3376606
248	0xbe92f6c7	-0.287039
249	0xbdb967dd	-0.090530135
250	0x3e2518c4	0.16122729
251	0x3e9d85a6	0.30766028
252	0xbe2a543a	-0.16633692
253	0x3e0117f7	0.12606798
254	0xbdc5ab0f	-0.096517675
255	0xbe2b2b35	-0.16715701

net.0.bias f4 [24]
0	0x3e6009e2	0.2187877
1	0xbe1467c7	-0.14492713
2	0xbdbe8862	-0.09303357
3	0xbe28d49c	-0.16487354
4	0x3e603f3b	0.2189912
5	0x3e7b2e52	0.24529389
6	0xbbc42989	-0.0059863967
7	0x3e810160	0.25196362
8	0x3e367b97	0.17820583
9	0x3e57e432	0.21083143
10	0xbca67983	-0.020321613
11	0x3ddc85f8	0.1076774
12	0x3d28dc52	0.04122574
13	0x3e82af73	0.25524482
14	0x3db74364	0.089484006
15	0xbe2412fa	-0.16022864
16	0xbe24d9f4	-0.16098768
17	0xbe4caa89	-0.19986929
18	0x3e52ee1c	0.20598644
19	0xbe2d5a55	-0.1692899
20	0x3c0c6a6e	0.008570297
21	0xbe1ffd96	-0.15624079
22	0x3d4fd212	0.050737448
23	0x3e86bca7	0.26315805

net.1.weight f4 [24]
0	0x3f87f08e	1.0620286
1	0x3f885567	1.0651063
2	0x3f76f985	0.96474487
3	0x3f947628	1.1598558
4	0x3f8ee2be	1.1162946
5	0x3f8db117	1.1069669
6	0x3f8036fa	1.0016778
7	0x3f8fdc31	1.1239072
8	0x3f9496a9	1.1608478
9	0x3f7eb531	0.99495226
10	0x3f83c9af	1.0295924
11	0x3f771b80	0.96526337
12	0x3f8fca81	1.1233674
13	0x3f8529da	1.0403397
14	0x3f92856b	1.1446966
15	0x3f80151a	1.000644
16	0x3f793ac3	0.9735529
17	0x3f8330bb	1.0249246
18	0x3f95e6c7	1.1711053
19	0x3f8b66be	1.089073
20	0x3f9d680d	1.2297379
21	0x3f992870	1.1965466
22	0x3f66021e	0.8984698
23	0x3f971e9a	1.1806214

net.1.bias f4 [24]
0	0x3e43306f	0.19061445
1	0xbe2672de	-0.16254756
2	0xbe631ef9	-0.22179784
3	0xbe463884	-0.19357497
4	0x3e0e9b22	0.13926366
5	0x3e237694	0.15963203
6	0xbe22a8a3	-0.15884642
7	0x3e6703f5	0.22560103
8	0x3e817d5b	0.2529095
9	0x3e19d034	0.1502083
10	0x3da1b113	0.07895102
11	0x3e214a40	0.1575098
12	0x3e00c41f	0.12574814
13	0x3dab3f97	0.08361738
14	0x3e1f4fd1	0.15557791
15	0xbe1fe798	-0.1561569
16	0xbe581de1	-0.21105148
17	0xbe7b8cab	-0.2456538
18	0x3de481f2	0.111575976
19	0xbe435eed	-0.1907918
20	0x3e77065c	0.2412352
21	0xbe3293e8	-0.17439234
22	0x3d929be1	0.07158638
23	0x3e3759bf	0.17905329

net.4.weight f4 [12, 24]
0	0xbd97f29b	-0.0741932
1	0xbd91ca31	-0.07118643
2	0x3d1df3da	0.038562633
3	0x3e526f7c	0.2055034
4	0xbea0d0df	-0.31409356
5	0xbe5a8c3f	-0.21342562
6	0xbe32d377	-0.1746348
7	0xbd8b08f7	-0.06788819
8	0xbe5d3a39	-0.21604241
9	0xbe2c0178	-0.16797435
10	0xbd4dc6b7	-0.050238337
11	0xbcee65cb	-0.029101273
12	0xbe82129c	-0.25404823
13	0xbe0b336a	-0.13593832
14	0xbe1b32f9	-0.15156163
15	0x3d6561a1	0.05600131
16	0x3e40dc6c	0.18834084
17	0x3e34f997	0.17673336
18	0xbe8d1edd	-0.2756261
19	0x3db8f6b0	0.09031427
20	0xbe37089b	-0.17874376
21	0xbcdf9fa6	-0.027297806
22	0xbd26116d	-0.040543962
23	0xbe6869f4	-0.22696668
24	0xbe69bb88	-0.22825444
25	0x3d3a689f	0.04550993
26	0x3e3d1c55	0.18467839
27	0xbd5b4f4d	-0.053542424
28	0xbeace339	-0.33767107
29	0xbe3d14d1	-0.18464972
30	0x3dc9d29b	0.09854623
31	0xbdf06bdb	-0.11739322
32	0xbd2cdc92	-0.04220254
33	0xbc48e399	-0.012261295
34	0xbe4a37e4	-0.19747883
35	0xbe44da1e	-0.1922383
36	0xbd12137a	-0.035663106
37	0x3c35e504	0.011101965
38	0xbe7b2e53	-0.2452939
39	0x3ea6d729	0.3258603
40	0x3e35e9c1	0.17764951
41	0xbddf9536	-0.109171316
42	0xbe6f2c66	-0.2335678
43	0xbca9dc98	-0.02073507
44	0xbd03cb86	-0.032176517
45	0x3e9273c1	0.28603938
46	0x3dbeed89	0.0932265
47	0xbe47c693	-0.19509344
48	0x3e1b4c1b	0.1516575
49	0xbe3e09a5	-0.18558367
50	0xbe8cc73d	-0.27495757
51	0xbe98ac16	-0.2981879
52	0x3e048a72	0.12943438
53	0x3e33477b	0.17507736
54	0xbe96c79c	-0.29449165
55	0xbbdb6aeb	-0.006696095
56	0x3e336a41	0.17521001
57	0x3e4066e1	0.18789245
58	0xbe08c77d	-0.13357349
59	0xbc81f331	-0.015863033
60	0x3e9fd2f8	0.31215644
61	0xbe671b42	-0.22568992
62	0x3e76901a	0.24078408
63	0xbe8f3928	-0.27973294
64	0xbd1a8b13	-0.037730288
65	0xbeb8348c	-0.3597759
66	0xbe8f6cea	-0.28012782
67	0xbda15d82	-0.07879163
68	0x3e2a4f9f	0.16631936
69	0xbe6cea01	-0.2313614
70	0x39aec572	0.00033334974
71	0x3e7839c6	0.24240789
72	0xbdf0975e	-0.11747621
73	0xbeb8ef5e	-0.36120123
74	0xbe7e87b1	-0.2485645
75	0xbeaf7949	-0.3427222
76	0xbdc176e3	-0.09446504
77	0x3e9e3abf	0.30904195
78	0xbe4d0b19	-0.20023765
79	0x3be2d6e6	0.0069225905
80	0x3e64574b	0.22298925
81	0x3e34b453	0.17646913
82	0x3e17d11d	0.14825864
83	0x3df6f005	0.12057499
84	0x3dd45fe0	0.10369849
85	0xbc6c588f	-0.014425411
86	0xbc058781	-0.008149982
87	0xbe9a4a6b	-0.301349
88	0x3d5ea0bf	0.05435252
89	0xbe439942	-0.19101432
90	0x3c019c22	0.00791076
91	0x3d4956d5	0.049155075
92	0x3eb3ff77	0.35155842
93	0xbe521cbc	-0.20518774
94	0xbe018696	-0.12648997
95	0x3e996973	0.29963264
96	0x3e3e0c84	0.18559462
97	0xbc844b1a	-0.016149092
98	0xbe41d535	-0.18928988
99	0xbe35b2d7	-0.17744003
100	0x3e89b79e	0.268979
101	0x3d81c3ed	0.06336198
102	0xbe93cf5c	-0.2886914
103	0x3e89ee7c	0.26939762
104	0x3e4cdb91	0.20005633
105	0x3e0cf953	0.13766985
106	0x3e08831e	0.13331267
107	0x3baa4652	0.005196371
108	0x3e816839	0.25274828
109	0x3df307f3	0.118667506
110	0x3e81ef6e	0.25377983
111	0xbeb271b1	-0.34852365
112	0xbeade364	-0.33962548
113	0x3d5f37df	0.054496642
114	0xbd8d0e96	-0.06887548
115	0xbdeecd5f	-0.11660265
116	0x3eac1412	0.33609062
117	0xbe897405	-0.26846328
118	0x3d834a1a	0.06410618
119	0x3eb1f51d	0.3475732
120	0xbdcd748e	-0.10031997
121	0x3e490e6a	0.19634405
122	0x3e42e662	0.19033197
123	0x3e2debc8	0.16984475
124	0xbd98538d	-0.07437811
125	0xbe8d06c2	-0.27544218
126	0xbdc5aa63	-0.09651639
127	0xbdd9e85d	-0.10640023
128	0xbe3cf553	-0.18452959
129	0x3cda873e	0.026675817
130	0x3dcb509f	0.09927487
131	0x3dea90fc	0.11453435
132	0xbdd998df	-0.10624861
133	0xbdb8b50d	-0.09018908
134	0xbe73b842	-0.23800758
135	0x3e9b4628	0.30326962
136	0x3e64b567	0.22334825
137	0x3dc97781	0.09837247
138	0xbe86bba3	-0.2631503
139	0xbd13c7ed	-0.036079336
140	0xbb4b7e8a	-0.0031050765
141	0x3e8fd269	0.28090218
142	0xbdd1a749	-0.10236985
143	0xbe8bff3b	-0.27343163
144	0x3d13c161	0.036073092
145	0xbe174c47	-0.14775191
146	0xbe2d1917	-0.16904102
147	0xbe8b9882	-0.27264792
148	0xbddde841	-0.108353145
149	0x3d1c582a	0.038170017
150	0xbd60ff15	-0.054930765
151	0x3e609697	0.21932445
152	0x3dca7dda	0.098872855
153	0x3da097e0	0.07841468
154	0xbd1f6621	-0.038915757
155	0xbd0debd6	-0.03464874
156	0xbd8a4d7d	-0.06753061
157	0x3b1d868b	0.0024036493
158	0x3e4ee4f0	0.2020452
159	0xbeb40be8	-0.35165334
160	0xbe0fe3c6	-0.14051732
161	0xbe560ec8	-0.20904076
162	0x3c8b1753	0.016978895
163	0x3c719004	0.014743809
164	0x3c683dc1	0.0141748795
165	0xbe892281	-0.26784137
166	0xbd1f6410	-0.038913786
167	0x3e28c463	0.16481166
168	0xbdfd8fd1	-0.123809464
169	0x3e6e7673	0.23287372
170	0x3e234f99	0.15948333
171	0x3e27cf45	0.16387661
172	0xbe1fc34a	-0.1560184
173	0xbe8430df	-0.25818536
174	0x3dcc92de	0.0998895
175	0xbcfad439	-0.030618774
176	0xbd8977b6	-0.06712286
177	0x3d65cb00	0.0561018
178	0xbd53892d	-0.051644493
179	0x3cb5e68e	0.022204664
180	0xbe4ad435	-0.19807513
181	0xbe3613fb	-0.1778106
182	0xbe25ae2a	-0.1617972
183	0x3d68cc82	0.05683566
184	0xbe1fb012	-0.15594509
185	0x3d2288c0	0.039681196
186	0xbc3742e5	-0.0111853825
187	0xbdd565ae	-0.104197845
188	0xbe04350b	-0.1291086
189	0x3e9cae57	0.3060176
190	0x3d955c22	0.072929636
191	0xbe71c103	-0.23608784
192	0xbd9f3b7f	-0.0777502
193	0xbd831ff7	-0.06402581
194	0xbe126997	-0.14298092
195	0xbdcdbc06	-0.10045628
196	0x3e8aca3b	0.27107415
197	0x3e71f150	0.2362721
198	0xbc829b5b	-0.01594322
199	0x3d9c2438	0.07624096
200	0xbda70c5c	-0.08156654
201	0xbdbe392e	-0.0928825
202	0xbea179e5	-0.3153831
203	0x3df9705b	0.12179633
204	0x3e9bc2c2	0.30422026
205	0x3e122c43	0.14274697
206	0x3e47d156	0.19513449
207	0xbe4a9d5a	-0.19786587
208	0xbe373354	-0.17890674
209	0xbeb8a6ab	-0.36064658
210	0x3e074c1f	0.13212632
211	0xbea5c681	-0.3237801
212	0x3e152fb5	0.1456898
213	0xbe6423c1	-0.22279264
214	0x3c059d6d	0.008155209
215	0x3d3340c0	0.043762922
216	0xbe6f6c19	-0.2338108
217	0xbc18e82a	-0.009332696
218	0x3d7fd926	0.06246295
219	0x3e7035ed	0.23458071
220	0xbe9b1088	-0.3028605
221	0xbe6b828f	-0.22999023
222	0xbbd62393	-0.0065350025
223	0xbe7d3a9f	-0.24729393
224	0xbe50cb88	-0.20390141
225	0xbe25a3b9	-0.16175736
226	0x3d6595f7	0.05605122
227	0xbde6c1c0	-0.11267424
228	0xbde90dbe	-0.11379574
229	0xbe346dbd	-0.17619987
230	0xbe7ab07a	-0.24481383
231	0x3eaaeb8c	0.33382833
232	0xbc5e79c4	-0.013578836
233	0xbb3b54b7	-0.002858443
234	0xbe64e84c	-0.22354239
235	0x3d706c88	0.058697253
236	0xbe51520c	-0.20441455
237	0x3e3c0c2f	0.18364023
238	0xbe281b29	-0.16416611
239	0xbdc989d0	-0.09840739
240	0xbe4e868d	-0.20168515
241	0x3c6c6b14	0.014429826
242	0x3e0150bd	0.12628455
243	0x3c177291	0.009243623
244	0xbe9134f8	-0.28360724
245	0xbe215d96	-0.15758356
246	0xbd40a76c	-0.047034666
247	0xbcb5ddf7	-0.022200568
248	0xbdf1fdde	-0.118159994
249	0xbdf83103	-0.12118723
250	0x3e070387	0.1318494
251	0xbd50597f	-0.0508666
252	0xbe70709e	-0.2348046
253	0xbd0f1641	-0.034933332
254	0xbe324eb3	-0.17412834
255	0x3eb3c634	0.35112154

net.4.bias f4 [12]
0	0xbe51b644	-0.20479685
1	0xbe968571	-0.29398683
2	0x3e2e8280	0.1704197
3	0x3e1efac4	0.15525347
4	0x3e8364a2	0.25662714
5	0xbe852207	-0.26002523
6	0x3e77564e	0.24154016
7	0xbec5a221	-0.38600257
8	0x3dd81304	0.10550502
9	0xbe406507	-0.18788539
10	0xbeb624b4	-0.35574877
11	0x3e3a008a	0.18164268

net.6.weight f4 [1, 12]
0	0xbef9f93d	-0.48822966
1	0xbee03591	-0.43790868
2	0x3e96f1f9	0.29481485
3	0x3ebc676d	0.36797658
4	0x3ee2047b	0.44144043
5	0xbecdb159	-0.40174368
6	0x3e5828c4	0.21109301
7	0xbed4390b	-0.4144977
8	0x3e8b6dc4	0.27232182
9	0xbe9a3763	-0.30120382
10	0xbe9baba4	-0.3040439
11	0x3e46b94c	0.19406623
