improved_Rc_v1/mlp_model.pth (torch, 6121 bytes, 7 tensors)

net.0.weight f4 [24, 12]
000000 60 20 47 3e bd bf df 3d 37 40 71 be c6 95 5a 3e
       0.19445944 0.10925243 -0.23559652 0.21346197
000010 47 de 5c 3e 0d f7 90 3d 0d 17 60 be 9b 76 43 3e
       0.21569167 0.07078371 -0.21883793 0.19088213
000020 3b 26 17 3e 1f c4 8d bc 83 92 c7 3c a9 48 aa 3d
       0.14760678 -0.017305432 0.024361854 0.0831464
000030 5c 5b ea 3d c0 b0 1e 3e 47 fc 80 be 98 c5 ad 3d
       0.11443207 0.15497112 -0.25192472 0.08484954
000040 b8 3f c4 3c 14 23 86 bb f2 a1 d5 3d c0 bc e5 3d
       0.023956165 -0.004093537 0.10431279 0.11217642
000050 6d 55 97 3e 32 34 9f bd 5d 2e ad bd 31 29 e4 bc
       0.29557362 -0.07773627 -0.08456109 -0.027851673
000060 20 8f 35 bd b8 bb e7 bd 90 df d9 bd a8 a2 75 3e
       -0.044325948 -0.113151014 -0.10638344 0.2398783
000070 cc b7 a6 3d 1f 01 7b be 02 e4 96 3d a6 42 42 bd
       0.08140525 -0.24512146 0.07367708 -0.047426842
000080 95 0d 50 3e f8 79 61 3d 1e d6 f9 3c 53 3b b9 3e
       0.20317681 0.05504796 0.030497607 0.36178073
000090 10 31 bb bd 5e 63 b1 bd 8d 37 98 bd 4a 22 40 3d
       -0.09140217 -0.08661531 -0.074324705 0.0469077
0000a0 e3 e6 51 bd dc 9e 4d 3d 9c c6 de bd e2 03 01 be
       -0.05124558 0.05020033 -0.108777255 -0.12599137
0000b0 2a 06 d6 b9 bb 85 8a 3d e8 c5 2a be 50 7f a1 bb
       -0.00040821853 0.06763788 -0.16677058 -0.004928507
0000c0 c9 e3 e4 3d 70 84 9f be 15 5b 1e 3e fc f9 02 bd
       0.11176259 -0.3115573 0.15464433 -0.031976685
0000d0 9a fc 6f bd a8 25 db 3d c8 42 12 3e ab 68 a1 3a
       -0.05859051 0.10700542 0.14283288 0.0012314519
0000e0 33 a6 16 3e ad 41 5d be cd 40 fb bc e2 f2 99 3e
       0.14711837 -0.21607085 -0.030670548 0.30068117
0000f0 3f 16 e1 be 29 b5 30 be d7 ec db 3d 7a 05 f3 bd
       -0.43962285 -0.17256607 0.10738533 -0.11866279
000100 1e f5 88 bd 9f 12 41 be 7f a6 5a be 28 8b a9 3d
       -0.066873774 -0.1885476 -0.21352576 0.08278495
000110 46 50 98 be 90 96 1a bd 5d 03 81 bc 7b 4e 0e 3d
       -0.29748744 -0.037741244 -0.015748674 0.034742814
000120 c9 b5 c2 bd c3 4f 2d 3e 56 cf 68 bc 4b f7 83 be
       -0.09507329 0.16924958 -0.014209589 -0.25774607
000130 75 ec 03 be 31 f2 1c bd 30 bf 6a bd ad 9d 7c 3e
       -0.1288317 -0.03831691 -0.057311237 0.24669524
000140 f8 5f 96 be 52 87 33 3e 34 0a 0f bd 6c 50 b5 bd
       -0.29370093 0.1753209 -0.03492184 -0.0885323
000150 33 5f 69 3e 24 d6 89 3d 2b ef 29 3e 1b e8 c0 3d
       0.22790222 0.06730297 0.16595142 0.094192706
000160 50 85 93 bd 19 41 f3 bd 3e 41 06 3d 97 71 39 be
       -0.07203162 -0.11877651 0.032777064 -0.18109737
000170 1d 3e d6 bd 3f 47 06 bd 2f 71 35 3e 94 a7 4c 3e
       -0.10461066 -0.03278279 0.17718957 0.19985801
000180 67 ac 75 3e c0 ec 33 be 1e a8 48 3d bf d7 0e 3e
       0.23991548 -0.17570782 0.048988454 0.13949488
000190 ca a5 44 be 95 56 4f 3e 90 ac 6e 3e 61 2f 5c be
       -0.19203869 0.20247872 0.23308015 -0.21502449
0001a0 03 34 3d be 82 87 96 3b 4e d5 ec bd a2 0e a0 bd
       -0.18476872 0.0045937905 -0.11564122 -0.07815291
0001b0 fa a5 95 bd 44 f0 a4 3d b6 7b 94 be e5 af 17 bd
       -0.07307048 0.080536395 -0.29000634 -0.03703298
0001c0 ae 23 b1 3d 14 22 41 3e 87 ea 1d 3e 28 9d c3 3d
       0.086493835 0.18860656 0.15421496 0.095514596
0001d0 77 1d 14 be 58 66 4b be c8 2c 58 bc 80 53 42 3d
       -0.14464365 -0.1986326 -0.01319427 0.047442913
0001e0 ed be 2e 3e 2f dd 82 bd 54 39 27 3e b0 ff 94 3d
       0.1706502 -0.06389844 0.16330463 0.07275331
0001f0 f8 aa d9 bd 99 e6 5d be 76 81 43 3e ee f0 ba 3d
       -0.10628313 -0.21669997 0.19092354 0.09127985
000200 41 5e 70 bd c5 95 b7 bd 96 3d a3 3d 54 c7 13 3e
       -0.058683638 -0.08964113 0.07970731 0.14431506
000210 3f b8 22 3e ba 8f 54 3e aa 1c 0e 3e 1b 71 d9 bc
       0.15890597 0.20757952 0.13878122 -0.02654319
000220 e3 e0 eb bd 7c 3d dc 3d 81 f0 07 be b9 b4 e6 3d
       -0.11517503 0.10753915 -0.13275339 0.11264939
000230 4e ad 1f 3e 5e 45 1e 3d e7 e6 50 3e ce ba 25 3d
       0.15593454 0.038640372 0.20400582 0.040461354
000240 09 a8 8d be 66 06 62 3e 0b 5c 85 3e 6c 76 24 3d
       -0.27667263 0.22072753 0.26046786 0.040152
000250 ca 16 78 bd 50 7c 03 3e 82 b2 de be 23 b1 af 3e
       -0.06056861 0.1284039 -0.43495566 0.34314832
000260 d5 91 29 be e7 bf 48 3e 11 cb 2a 3e 4e ee 30 3e
       -0.16559537 0.19604455 0.16679026 0.17278406
000270 44 5b 48 be 0c 19 81 3e 2f de a0 bd 1e 3e 7d bd
       -0.19566065 0.25214422 -0.07854878 -0.061826818
000280 fe f2 d6 3d 53 9b 90 3d 5e e3 9a bd 06 e7 e4 3c
       0.10495566 0.07060876 -0.07562898 0.027942192
000290 62 82 22 be ca 5a 02 3e 10 b3 2f 3e 97 b6 fa bd
       -0.1587005 0.12729946 0.1715815 -0.122418575
0002a0 df 32 7d be 28 0c 7d 3e b5 f8 70 be 32 f8 58 be
       -0.24726437 0.24711668 -0.23532374 -0.21188429
0002b0 36 ba 46 3c c6 9d 42 3b b0 02 83 3c e5 cc 43 3e
       0.012129357 0.002969609 0.015992492 0.1912113
0002c0 29 2d d9 bd f0 aa a8 3d 12 89 d4 bd d7 ad 90 bd
       -0.10604317 0.08235729 -0.103777066 -0.07064407
0002d0 28 8b ad bc 31 d4 50 3e 0a 86 d1 3d 68 79 34 be
       -0.021184519 0.20393445 0.10230644 -0.17624438
0002e0 3b 34 2f be 9c ab 4f 3e 80 93 66 3e 8a 32 9d be
       -0.17109768 0.20280308 0.22517204 -0.3070262
0002f0 8d b8 21 3d a3 ac 8d bd 63 91 5a bd 45 1c b0 3d
       0.039482642 -0.069176935 -0.053361308 0.08599142
000300 db 96 36 bb 1f 73 a4 3d 4b 3e 62 3e 99 b1 0f be
       -0.0027860913 0.0802977 0.22094075 -0.14032592
000310 1d c2 c1 3d a6 b6 c2 bd 36 70 39 bd 68 30 8d bd
       0.09460852 -0.09507494 -0.04527303 -0.068939984
000320 41 72 d0 bc 8e 37 1d be 4c 29 af bd 43 55 fa 3c
       -0.025445106 -0.15353224 -0.08552799 0.030558234
000330 86 57 59 bd 20 84 ef bd 9d 12 0d bd bd c7 ad be
       -0.053061984 -0.11695123 -0.03444158 -0.3394145
000340 1a af 53 be 67 24 33 3e f3 fe 73 be e9 bf 63 bc
       -0.20672265 0.17494355 -0.23827724 -0.013900735
000350 89 30 93 be d6 89 66 bd 72 d5 44 3e 72 bc 0e be
       -0.28747967 -0.056283794 0.19222048 -0.13939074
000360 bb 42 ca be 68 8a da be 28 80 30 38 a0 b8 a5 3d
       -0.39504036 -0.4268372 4.2081025e-05 0.08091855
000370 bb 13 d1 bd 2d 3d f0 3c b4 51 a2 be cc 21 68 be
       -0.102088414 0.029326046 -0.3170296 -0.22669142
000380 1b fe 10 be a7 a2 b6 be b2 d1 65 3c b8 7a d2 3d
       -0.14159434 -0.3567097 0.014027046 0.10277313
000390 90 20 51 3d ec 02 22 3a 73 79 90 3e 7c b4 84 be
       0.051056445 0.0006180245 0.28217658 -0.2591895
0003a0 d0 46 09 3e 75 76 08 be c8 75 19 3e 71 10 3e be
       0.13405919 -0.13326438 0.14986336 -0.1856096
0003b0 c8 d2 cf bb e7 2b b1 be 69 2f a6 bd 41 1d 3e 3e
       -0.0063422658 -0.34603807 -0.081145115 0.18565847
0003c0 90 72 14 be 32 b6 f3 3d 17 f9 0e 3d a5 cd 1d 3d
       -0.14496827 0.118999854 0.03490552 0.038526196
0003d0 e1 25 ba bb ca cc ee bd fa b1 a7 3e 0f 4e cf 3d
       -0.005680785 -0.11660154 0.32752973 0.1012231
0003e0 49 6e 04 3e 5e 28 1b 3d e3 65 f9 3b 81 41 86 3e
       0.12932695 0.037880294 0.007611023 0.2622185
0003f0 df bb 57 3e e4 1b 83 3e 9c e1 ea bd 9e 03 bf 3d
       0.21067761 0.25607216 -0.11468813 0.09326862

net.0.bias f4 [24]
000000 40 b3 43 be 24 95 d1 3d 1a 8b 15 3e 31 e8 d5 3d
       -0.19111347 0.102335244 0.14603844 0.104446776
000010 40 71 75 bc 1e dd d2 3d 6c 49 72 be f6 86 cd 3c
       -0.014980614 0.10296081 -0.2366082 0.025088768
000020 2b d1 95 3d 77 81 87 3d 49 33 05 3e 7f 9e 88 bd
       0.07315286 0.0661649 0.13007845 -0.06670856
000030 f7 d0 b1 bc b9 48 31 bd 65 4c 3f be 8a 27 0a 3c
       -0.021706088 -0.043282244 -0.18681486 0.008432278
000040 96 82 9f 3d ae d6 21 bd 83 87 03 3e 3b a6 6b be
       0.07788579 -0.039511375 0.12844662 -0.2301263
000050 ae 51 6b 3e 93 78 b6 bd 74 8b 75 bd 2c f7 8d bd
       0.22980377 -0.089097165 -0.059947446 -0.0693191

net.1.weight f4 [24]
000000 32 3c a0 3f 3e 61 7c 3f e6 de 8a 3f fc d2 86 3f
       1.251837 0.9858588 1.0849273 1.0533137
000010 bb 79 a5 3f 88 12 70 3f 56 26 9e 3f 98 82 8b 3f
       1.2927774 0.93778276 1.2355449 1.0899229
000020 86 40 8d 3f 32 6f 85 3f 40 17 86 3f 7a ed 68 3f
       1.1035316 1.0424559 1.0475845 0.9098736
000030 16 dd 84 3f 7c fa 7c 3f 85 56 92 3f 38 cd 95 3f
       1.037997 0.9881971 1.1432654 1.1703253
000040 89 c4 88 3f 6c 37 90 3f 35 9b 8c 3f 44 70 aa 3f
       1.0684978 1.1266913 1.0984865 1.3315511
000050 59 f0 88 3f c8 00 8a 3f b0 bd 8d 3f 5f 32 a7 3f
       1.0698348 1.0781488 1.1073513 1.3062247

net.1.bias f4 [24]
000000 fd 02 d4 bd 66 1d 79 3d ee 82 3d 3e 18 74 88 3d
       -0.103521325 0.060819052 0.18506977 0.06662768
000010 8c d1 20 3e d4 c4 5c 3e a5 3a 26 be 77 18 82 3d
       0.15704936 0.21559459 -0.16233309 0.063523225
000020 0f 19 08 3e ac 12 ff 3d ed 72 42 3e ba 14 82 be
       0.13290809 0.12454733 0.18989153 -0.25406438
000030 fa db 4a be 91 07 22 be 05 c2 6a be 4f 19 df 3d
       -0.19810477 -0.15823199 -0.22925575 0.10893499
000040 88 04 d8 3d 04 0e c6 bd aa 01 5a 3e 6a e8 38 3e
       0.10547739 -0.09670642 0.21289697 0.18057409
000050 14 bd 2c 3e 94 12 42 bc b5 cc 6f be c2 93 4f be
       0.16869003 -0.01184525 -0.23417933 -0.20271209

net.4.weight f4 [12, 24]
000000 20 47 d7 3e 3d d8 74 3d 1a 2b b3 be 50 07 cb be
       0.42046452 0.059776533 -0.3499382 -0.39654016
000010 a2 c5 0b be 90 13 90 be 37 93 93 bd 02 5c 7e bd
       -0.1364961 -0.28139925 -0.072058134 -0.062099464
000020 90 6b 3d be d1 42 80 be 76 18 d6 bd 90 ad c4 3a
       -0.18498063 -0.25050977 -0.10453884 0.0015005339
000030 04 7c 65 3e 8f 74 a8 bd ea a9 a2 3e 85 5c 37 be
       0.2241059 -0.08225357 0.3177026 -0.17906387
000040 c3 bc b1 bd d8 61 94 be e5 37 16 be 84 c2 f0 bd
       -0.086785816 -0.289809 -0.1466976 -0.11755851
000050 99 ec 48 be dc 7f 41 3d 8f 0a d3 bd d0 64 ee bd
       -0.19621505 0.047241077 -0.10304748 -0.11640322
000060 11 95 a5 bd 89 3d a0 bd 75 26 13 be ac 6f 39 3e
       -0.08085073 -0.07824237 -0.14370139 0.18109006
000070 07 50 36 bd e6 dc 7a bd 81 d3 a0 be da ca 96 3e
       -0.044509914 -0.06124582 -0.31411365 0.29451638
000080 3d ca 4a 3e 6b a8 0a 3e 6b 89 80 3e ea 53 4e 3c
       0.1980371 0.13540809 0.25104842 0.012593249
000090 1e 0a 42 be 11 e7 83 be f1 11 a5 be de d9 18 3c
       -0.18949172 -0.25762227 -0.3224025 0.009329287
0000a0 32 98 0d 3e 2d 3b 46 be 56 e3 bd 3d 21 fa 96 3e
       0.13827589 -0.19358511 0.092718765 0.29487708
0000b0 3f d5 73 bc 7f ed d6 3c e2 48 ab be 67 a8 84 be
       -0.014882385 0.026236294 -0.33454043 -0.2590973
0000c0 80 8c 21 be 3e 7c 32 be 86 44 3f 3e 81 d6 09 3d
       -0.15776253 -0.17430207 0.18678483 0.033651832
0000d0 5a 6c 1b bd fc b1 e3 3c c0 38 bc be 92 cf 94 3e
       -0.03794513 0.02779483 -0.36762047 0.29064614
0000e0 f1 72 97 3e ed e8 5e 3e cb 87 8e 3e 0f 25 64 be
       0.2957988 0.21768542 0.27837977 -0.22279762
0000f0 21 97 ca be d4 af a0 be ab 07 5c bd ac d0 76 3d
       -0.39568427 -0.31384146 -0.05371825 0.0602576
000100 bc 0b 5c 3e 40 18 94 be 0e 7a 1b 3e 0c 44 6d 3e
       0.21488851 -0.2892475 0.15183279 0.23170489
000110 87 31 57 3e fb d1 04 be b9 f5 d2 be 5c 0c 02 bf
       0.21014987 -0.12970726 -0.41203097 -0.5080011
000120 96 58 bb bd 79 f8 6c bd e9 d3 f4 3d 27 1b a3 3c
       -0.09147756 -0.05785415 0.11954481 0.019910408
000130 95 ea 25 3e b5 00 c1 bc e9 40 dc 3b 4c 83 81 3e
       0.16202767 -0.023559907 0.006721605 0.25295484
000140 3b b3 c3 3d 2d b7 73 be b8 49 76 3d 88 63 64 be
       0.0955567 -0.23800345 0.060128897 -0.22303593
000150 30 f4 96 3d 04 3e 19 3d c1 67 aa be 98 8b 08 bd
       0.07370794 0.03741266 -0.33282283 -0.033336252
000160 19 fc 4b bd 8a 3e 9f 3d 61 dd eb bd 63 78 93 be
       -0.049800966 0.077756 -0.11516834 -0.28802785
000170 44 93 08 3e 93 e2 e4 3d 48 27 05 3e 8f 3f 07 3e
       0.13337427 0.11176028 0.13003266 0.1320784
000180 cb 12 ce 3e 5a 97 2b be d5 a2 1a be 35 6d 8c bd
       0.40248713 -0.16756955 -0.15101178 -0.06856767
000190 20 18 87 bd 33 9e bb be 37 91 fe bc d3 8f 5f bb
       -0.06596398 -0.36644134 -0.031075103 -0.0034112826
0001a0 88 5f 4a be a7 22 67 be 0b ce 3b be 93 27 20 3d
       -0.19763005 -0.22571813 -0.18340318 0.03910024
0001b0 59 45 bf bc 34 1a fc 3d 7c d6 a2 3e 79 12 6a be
       -0.023348497 0.12309685 0.31804264 -0.2285861
0001c0 58 9d 80 be 63 9b 4e 3c a7 e2 4f be be bd 35 bd
       -0.25120044 0.012610289 -0.20301305 -0.044370405
0001d0 84 8e b9 be e3 ef 0d be 58 7e 48 3d 5a 1d a3 bc
       -0.36241543 -0.13861041 0.048948616 -0.019911457
0001e0 97 d0 10 be f1 53 c3 3a eb 50 30 3e e5 c2 ba 3d
       -0.1414207 0.0014902336 0.17218368 0.091192044
0001f0 2f 05 91 3e c3 d1 0d 3e 32 7b 47 be 6d c5 e2 3b
       0.28324267 0.13849549 -0.19480589 0.0069205076
000200 3f 01 76 3e d2 51 1a be e9 10 6f bd 88 44 04 be
       0.24023913 -0.15070274 -0.058365736 -0.12916768
000210 14 da c3 bd 40 a9 a0 be 47 06 54 be 83 a3 56 3e
       -0.095630795 -0.31379128 -0.2070552 0.20960812
000220 24 9c b4 3d 59 98 7e be eb 2f ee bd aa 5e b3 bd
       0.08818844 -0.24862804 -0.116302334 -0.0875829
000230 21 43 a0 3d 40 77 ed bd 17 0d d5 bd b2 6e da 3d
       0.07825304 -0.11595011 -0.10402887 0.10665645
000240 d6 d5 36 be 51 58 b5 3c 79 b3 4e be 15 29 7a be
       -0.1785501 0.02213684 -0.20185651 -0.24429734
000250 33 37 8c 3e 9c cf 02 bd 85 41 a4 be 67 f1 16 be
       0.27385864 -0.031936273 -0.32081237 -0.14740525
000260 53 81 30 be 47 8b 74 3e 84 44 05 be 63 bc 2f be
       -0.17236833 0.23881255 -0.13014418 -0.17161708
000270 d4 78 26 be af 48 45 be 9d 2b 84 be 03 a1 89 3e
       -0.1625703 -0.19266008 -0.25814524 0.26880655
000280 ac b6 15 3d dc 80 32 3e 80 f1 0c 3e 15 a9 a1 3e
       0.036551163 0.17431968 0.13764 0.31574312
000290 f8 8a 94 3d 73 6f a3 be bc 32 3b be 62 97 bb bd
       0.07253069 -0.31920967 -0.18281072 -0.09159733
0002a0 dd 83 a1 3d 8a 80 d8 3c e9 07 15 be 8e b1 bf bd
       0.07886479 0.02642848 -0.14553799 -0.09360038
0002b0 5d 6a 5a be 52 52 ad 3d 87 00 29 3e fe 28 20 be
       -0.21329637 0.08462967 0.16504107 -0.15640637
0002c0 54 ee a5 be a6 ae 94 bd 57 f5 d1 bd 7f 96 ff 3d
       -0.32408392 -0.07259874 -0.10251873 0.12479877
0002d0 cd 56 19 3e 9b 89 69 3d 23 e4 80 3d 0c 93 a8 be
       0.14974518 0.057015996 0.062935136 -0.32924688
0002e0 65 68 a3 bd 5e 6e 1d 3d 27 0b 40 be 89 d8 5b bd
       -0.07978896 0.038435332 -0.18754254 -0.0536733
0002f0 2d c7 75 be b8 63 4e 3c ba 40 d1 bd 96 67 95 3d
       -0.24001761 0.012597017 -0.10217424 0.07295148
000300 c1 33 c1 be 24 02 1d 3e 1d 05 6b 3b eb 4a 61 3d
       -0.37734798 0.15332848 0.0035861202 0.055003088
000310 08 7c 6d 3e 38 e8 98 3d 7b 0d fd be 10 7a 24 3e
       0.23191845 0.07466167 -0.49424347 0.16062188
000320 11 11 d3 3d 56 92 9c 3d 5f 7d f5 3d f0 2f d8 bd
       0.103059895 0.07645099 0.11986803 -0.10556018
000330 30 4f 54 be 18 24 f8 bc 37 c4 2b be 4e fc a0 3e
       -0.20733333 -0.030290648 -0.16774069 0.31442493
000340 43 8a 25 3e 4d de 9a be 57 1a cf 3c 6d 1b 85 3e
       0.16166024 -0.30247727 0.025281115 0.25997487
000350 cd b1 06 3e d9 b1 8a be f0 b1 e0 be df e4 82 be
       0.13153763 -0.27088812 -0.43885756 -0.2556524
000360 9f e6 1c be 00 0d c9 bc fb 95 3d 3e 9d fc 32 3e
       -0.1532235 -0.024542332 0.18514244 0.17479177
000370 e3 58 be 3e 58 b1 19 3d cb 04 8c be a4 ba bb 3d
       0.3717719 0.037522644 -0.27347407 0.09166458
000380 ca 88 0c be ee b8 05 3e b4 45 83 3e 01 97 92 be
       -0.13724056 0.13058826 0.25639117 -0.28630832
000390 24 b5 85 bd d6 dc 03 be fb 30 9b bd e4 58 25 3e
       -0.065286905 -0.12877211 -0.07577702 0.1614719
0003a0 52 50 bb 3d e4 fb f3 3c 5a c0 1a be 9e 54 58 3e
       0.09146179 0.029783197 -0.15112439 0.21126029
0003b0 03 0c 66 bd ab 2a 12 bc 91 c4 b8 3d e4 8e 1b 3e
       -0.0561638 -0.008921306 0.09021867 0.15191227
0003c0 78 ac fd bd d0 42 d2 3d 20 ae 18 3e 04 a2 3c 3e
       -0.123864114 0.1026665 0.14910173 0.18421179
0003d0 d2 35 32 3e 1a bf 4c 3d ab 47 98 be 66 10 3e 3e
       0.17403343 0.049986936 -0.29742178 0.18560943
0003e0 4a 93 80 3d bb 71 41 3e 39 5c 2e 3e 64 5f b0 bd
       0.06278093 0.18891041 0.17027368 -0.08611944
0003f0 24 9b a4 be 2b 9b b7 bd 9d 6b 27 be af a5 ac 3e
       -0.32149613 -0.08965143 -0.16349645 0.33720157

net.4.bias f4 [12]
000000 41 cd 84 be 6a 59 ba 3e c1 21 ed 3e 8a bd 19 3f
       -0.25937846 0.36396343 0.46314815 0.6005484
000010 6d 5f 3a be ea 64 fc 3e 1f e0 d5 3e bf 5c 81 be
       -0.18200465 0.4929574 0.41772553 -0.25266072
000020 29 67 9b 3e 14 d7 5b 3e 07 16 00 3f 29 d8 d6 3e
       0.30352142 0.21468765 0.5003361 0.41961792

net.6.weight f4 [1, 12]
000000 b3 98 3f bf 59 b4 d7 3e 8a 78 c7 3e 74 33 b7 3e
       -0.74842376 0.42129782 0.38959152 0.35781443
000010 e7 5a 1a bf 4a 9c e8 3e d2 a6 06 3f c5 ed f6 be
       -0.60294956 0.4543174 0.525983 -0.4822828
000020 71 66 7b 3e cf f1 a6 3e 37 25 7d 3e c3 d0 8d 3e
       0.24550797 0.3260636 0.24721228 0.27698335
